weights/dqn.weights.pth (torch, 5552 bytes, 6 tensors)

fc1.weight f4 [24, 3]
000000 14 c1 f5 3c 4f 03 8f 3e 3b 8b 15 3f 12 36 85 3e
       0.029999293 0.27932212 0.58415574 0.26017815
000010 49 0e 2d 3e 02 ca a1 be f4 a5 1d 3e 3b 4d 11 bf
       0.1689998 -0.31599432 0.15395337 -0.5675847
000020 ec 64 ef 3e d3 36 d9 3e 44 10 c7 be 48 fa 26 bf
       0.46756685 0.4242464 -0.38879597 -0.6522565
000030 88 57 96 bc 85 77 f8 bd 34 85 77 be 63 25 a4 3d
       -0.018352285 -0.121321715 -0.24171907 0.080149435
000040 6e 87 67 3c d3 01 5d bf 90 c0 a2 bc 04 f7 8f 3e
       0.01413141 -0.8633091 -0.019867212 0.28118145
000050 a9 f7 c2 be af b9 0e bd ec 91 de be 46 c8 83 3d
       -0.38079575 -0.03484505 -0.43470705 0.064346835
000060 90 ce 30 be e2 32 e9 bc ad 10 c4 3e f6 17 62 be
       -0.17266297 -0.028466646 0.38293973 -0.22079453
000070 16 cf b9 3e ae ff e8 bd 57 1e 8f 3e b1 ce 80 3e
       0.36290807 -0.11376892 0.27952835 0.25157693
000080 95 86 4a 3e a3 6d 91 3d a4 7a db 3e ee ff 37 bc
       0.19777901 0.0710099 0.42867005 -0.011230452
000090 c8 b7 0f 3f 35 1e 81 3e d8 42 6d be d5 f6 39 3e
       0.561398 0.2521836 -0.2317003 0.18160565
0000a0 d8 78 70 3e 5e 58 c7 bd 17 7d 36 3d 37 81 01 bf
       0.23483598 -0.097336516 0.04455289 -0.5058779
0000b0 f3 50 11 be 49 7c f0 be 41 f6 87 3e e8 2b 81 be
       -0.14191036 -0.46969822 0.26555064 -0.2522881
0000c0 96 47 f8 be 25 12 c2 3e 18 83 b1 3d 57 54 51 be
       -0.48492116 0.37904468 0.08667582 -0.2044233
0000d0 76 42 9f 3e b2 a4 87 be 90 fa e1 bc 23 38 b0 3e
       0.31105393 -0.2649284 -0.027585298 0.3441783
0000e0 b3 3c da be 87 dc 4c be 94 8e aa 3e d8 c7 6f 3f
       -0.42624435 -0.20006 0.33311903 0.9366431
0000f0 8e 5f 08 bf 1d dc 16 3c f5 d3 87 be 5c c2 bf 3c
       -0.53270805 0.0092077525 -0.26528898 0.023408107
000100 b2 39 fa bd 9f c9 04 3f 26 5b 07 3e eb 21 ca be
       -0.12218036 0.5187015 0.13218364 -0.39479002
000110 e6 71 2d be e1 b7 9d be 9c 00 77 be f9 98 c2 be
       -0.1693798 -0.3080435 -0.24121326 -0.38007334

fc1.bias f4 [24]
000000 4f 6c 99 be 67 f3 14 3d df f2 8c 3e 5d 63 45 be
       -0.29965445 0.03636494 0.27529046 -0.19276185
000010 d2 b1 e6 3e 7d 6d 54 be 37 a3 13 be 6b f5 96 be
       0.4505754 -0.20744891 -0.1441773 -0.29484114
000020 1c 55 e9 3e 7a f5 c2 bd 8e 54 65 bd bb ab 87 bd
       0.45572746 -0.09519477 -0.05598884 -0.06624552
000030 aa f6 5a 3e 3d 49 e8 be 1b d1 7a 3e 3b 17 e8 be
       0.21383157 -0.45368376 0.2449383 -0.45330223
000040 32 a9 05 3e 47 e2 f2 3d 4b 01 14 bf b3 3c fe bd
       0.13052824 0.11859565 -0.5781447 -0.12413921
000050 b6 4b 6e be b9 ef dc be 91 ef 05 be dd aa 04 3f
       -0.23271069 -0.43151644 -0.13079669 0.51823217

fc2.weight f4 [24, 24]
000000 4c eb 22 3e 7b 58 2d be da cb b3 bc bf 5c 40 3e
       0.15910071 -0.16928284 -0.02194779 0.1878538
000010 da cf 6d 3d 79 19 bc bd ce ed 1e 3e 93 bb c0 3d
       0.05805955 -0.09184546 0.15520403 0.09410777
000020 f1 b9 3c be 07 fb 29 be 63 f4 f7 bc ce e2 ee bd
       -0.18430306 -0.16599666 -0.0302679 -0.11664353
000030 ff 6b 08 be fe be 81 3d 34 2d 0d 3d db 01 f5 bd
       -0.13322447 0.06335257 0.034466937 -0.119632445
000040 6b 1b ad 3d 66 e7 ca bd cf 1d 58 3d 82 16 b1 3d
       0.08452495 -0.09907417 0.052762803 0.08646871
000050 5e 32 a9 bd 2c 8d dd bd 31 33 fd bd cb c8 17 be
       -0.0826156 -0.10817942 -0.123632796 -0.1482269
000060 52 ed 39 3e c4 18 18 3e b8 31 91 3d 19 5e 5c bd
       0.18156937 0.14853197 0.07089561 -0.053800676
000070 7c 12 4e bd a7 22 d6 bd d3 96 34 be ca 10 27 3e
       -0.050310597 -0.10455828 -0.1763566 0.16314998
000080 68 d0 4f 3e 5e 20 e4 3d 9c d0 99 3d 66 d4 10 be
       0.20294344 0.11138986 0.07510492 -0.14143524
000090 9f dd f0 bc 17 73 48 be 82 43 bd bd a2 15 0a bd
       -0.029402552 -0.19575153 -0.09241392 -0.033712037
0000a0 b9 9b a3 3c 77 40 bb bc 7d f6 0c be f7 38 f6 bd
       0.019971715 -0.022857888 -0.13765903 -0.12022584
0000b0 e2 0f 60 bd 47 eb a9 3d 4f 23 dd bd 87 c1 4c 3d
       -0.054702647 0.08296829 -0.1079775 0.04998925
0000c0 6f 5a 46 be b4 87 0b be 60 7a 10 be fc b5 0a 3e
       -0.19370435 -0.13625985 -0.14109182 0.13545984
0000d0 68 17 98 bc 46 7f 24 bd 41 1a 20 3e 9d 0f 37 3e
       -0.018565848 -0.04016044 0.15635015 0.1787705
0000e0 7a 7c 32 be 83 30 86 bc 94 3e 46 be 20 6a 89 bd
       -0.17430297 -0.016380554 -0.19359809 -0.06709695
0000f0 9d 5f 96 3d 03 20 57 3d 5d 53 2a be 47 30 13 3e
       0.073424555 0.052520763 -0.16633363 0.14373885
000100 1e 52 1d 3e 52 da 0e 3e d7 2a 2f be 5c 35 ab 3d
       0.15363356 0.1395047 -0.17106186 0.08359787
000110 a6 ac 31 be 8d c0 69 3d 3c ed f1 3d 8c 39 26 3e
       -0.17351016 0.057068396 0.11812827 0.1623289
000120 8c d1 a8 3d f5 10 c0 3d 44 e0 08 bf e5 24 12 3e
       0.08243093 0.09378234 -0.534672 0.14271887
000130 2b c2 0c bc 03 39 5e be 47 30 05 3e 92 b2 f2 3d
       -0.008591215 -0.21701436 0.13006698 0.11850466
000140 e2 b0 4f be f2 ed 72 3e 8c 7d 8e 3d 71 e9 04 3e
       -0.20282319 0.23723581 0.0695754 0.12979676
000150 49 1b 1e be 91 7f 8c 3d 6c 9f 2d 3c d8 26 2e 3e
       -0.15440096 0.06860269 0.010597091 0.17007005
000160 12 eb 6e be aa 4a 34 bd 66 81 82 be 6f 10 42 bd
       -0.2333186 -0.044016518 -0.25489348 -0.047378954
000170 37 28 2d 3d 32 08 50 bc d5 ee be bd e7 4c 34 3e
       0.04227468 -0.012697266 -0.09322897 0.17607461
000180 99 8f 5c bb 4b 3c a0 3d a2 39 f4 3d 29 22 0a bc
       -0.0033654927 0.07824 0.11925055 -0.008430996
000190 73 19 ce bc 0c 43 fe 3d 9e ac 1e be 34 4b 06 3d
       -0.02515862 0.12415132 -0.15495536 0.032786563
0001a0 d9 a6 08 3d 82 48 15 be cd 35 db bd 9d 7d c0 3b
       0.033362243 -0.14578441 -0.10703621 0.0058743493
0001b0 2c 30 1b 3d fc 25 f4 bd 3f 67 97 bc 1e 6e 0b be
       0.037887737 -0.119213074 -0.018481849 -0.13616225
0001c0 08 f2 b0 bd 90 e3 0c be 38 2a de bd 00 3b 34 3c
       -0.08639914 -0.13758683 -0.10847896 0.011000395
0001d0 4d e9 3e 3e 5a 14 d5 3d 3d c2 0d be 08 eb 46 3e
       0.18643685 0.104042724 -0.13843627 0.19425595
0001e0 dd 46 46 3e 95 71 84 bd fc 34 b2 bd ee bb a2 3d
       0.1936297 -0.064669766 -0.08701512 0.07946001
0001f0 85 33 9e bd 0c c1 1e be 11 f2 a9 bd 6d 86 b8 3d
       -0.0772467 -0.15503329 -0.08298124 0.09010015
000200 71 c9 0a be ea 2d 3c 3c 3c 40 0e 3d 73 6c 18 be
       -0.13553406 0.011485556 0.034729227 -0.1488512
000210 c1 f0 11 be 24 95 7e bd 57 55 0f be 1e 3a 46 3e
       -0.14251997 -0.06215395 -0.13997398 0.19358107
000220 7c 01 47 3e be 90 25 3e c7 68 60 3d c4 8d 9b bd
       0.1943416 0.16168496 0.054787423 -0.07595399
000230 31 88 4a 3e 9e 64 ef bd 77 15 3b be ef 21 12 bc
       0.19778515 -0.11689113 -0.18269907 -0.008919223
000240 52 b6 fa bd 51 32 5c 3d ee da c7 3d ad 16 b7 bd
       -0.12241806 0.053758923 0.097585544 -0.08939872
000250 ef e7 cf 3d 7a f2 6e bc 41 2d 0c 3d fc 6b 31 be
       0.1015166 -0.014584178 0.034222845 -0.17326349
000260 ee 93 e3 3d bd de f2 bd 0c 52 10 3e f5 31 f2 3d
       0.111122 -0.1185889 0.14093798 0.11825935
000270 41 57 73 bd 79 a1 33 be 62 4c 48 3e 62 e8 12 3e
       -0.059409384 -0.17542066 0.19560388 0.1434646
000280 e2 12 08 3e 15 66 f4 bd d7 16 49 3d 8a 36 8d bd
       0.13288453 -0.11933533 0.049094047 -0.06895168
000290 91 8a 21 3e f8 30 20 3e 16 28 5b bd 53 a4 4e 3e
       0.15775515 0.1564368 -0.053505026 0.20179872
0002a0 92 97 c6 bd 07 fa 21 be e3 1b 80 bd e6 96 8d bd
       -0.096968785 -0.15818034 -0.06255319 -0.06913547
0002b0 1d f4 d9 b9 4b bf 3a 3e 29 ea be bd 8d c7 49 be
       -0.00041571344 0.18237035 -0.09322006 -0.19705029
0002c0 2d 11 c3 3d 9d 07 2a 3e 09 1a f8 bd 12 a7 4a 3e
       0.095247604 0.16604467 -0.12114341 0.19790295
0002d0 93 11 e6 bc 75 f3 b6 3d a7 b5 3b be 98 70 f8 bc
       -0.028084552 0.089331545 -0.18331014 -0.030327126
0002e0 69 a5 05 3e 24 04 18 3e 66 a0 4b be 3a e3 30 be
       0.1305138 0.1484533 -0.19885406 -0.1727418
0002f0 66 52 38 be 44 fd e4 3d a8 ce c7 bc d1 13 27 be
       -0.18000183 0.11181119 -0.024390534 -0.16316153
000300 c9 39 0c 3d eb e5 31 3e e9 c2 8a bd 04 c1 30 bb
       0.034234796 0.17372863 -0.067754574 -0.0026970515
000310 da b3 d5 bd 3b 40 18 3d d0 c3 3f be 94 b4 0c be
       -0.104346946 0.03717063 -0.1872704 -0.1374076
000320 43 e2 2e be f7 a8 ad 3c 44 c0 26 be 62 06 4a be
       -0.170785 0.021198733 -0.16284281 -0.19728997
000330 8e bc b4 bd b9 57 bb 3d 81 1a 5d bd 9d ad 0e 3e
       -0.088250265 0.09147591 -0.053980354 0.13933416
000340 f3 f1 d3 3d 0d 8c 26 be f0 b7 8a 3d 41 ed 8a 3d
       0.103488825 -0.16264363 0.067733645 0.06783534
000350 68 8e 39 be 10 7d 60 3d ae 2c 11 bc 41 d6 89 3d
       -0.1812073 0.05480677 -0.00886075 0.06730319
000360 ca 1d 06 3e 15 41 83 3b e1 94 0d 3e 14 51 31 3d
       0.13097301 0.004005561 0.13826324 0.043290213
000370 05 83 a5 bd 55 e6 47 3d 03 8f 35 3e fe 58 4d 3e
       -0.080816306 0.048803646 0.17730336 0.20053479
000380 1f 40 40 3e 67 ed 30 3e b3 68 23 be ff 18 a3 bd
       0.1877446 0.17278062 -0.15957908 -0.07963752
000390 ba ea 37 be 50 03 cb bd 40 83 4c 3e 6f 21 73 3d
       -0.17960635 -0.09912741 0.19971943 0.059358057
0003a0 6b 2c 06 3e f4 c2 5f bd 9f eb 8e bd d1 39 40 3d
       0.13102882 -0.05462928 -0.06978535 0.046930138
0003b0 61 79 1f be b7 76 a7 bc 74 bf 50 be c5 db 13 3e
       -0.15573646 -0.02044235 -0.20385534 0.14439304
0003c0 af 64 d7 3d 5d d9 c1 bd 27 cb 4a be 93 e2 b8 bc
       0.10517251 -0.09465287 -0.19804059 -0.022568977
0003d0 2f 2c 67 bd a9 9d b6 bd 0c 4a 30 3e 45 4c 43 3e
       -0.05643862 -0.0891679 0.17215747 0.19072063
0003e0 4b ab 74 bd 46 de 7d bd 31 92 b2 3d 48 af ec bd
       -0.05973367 -0.061979555 0.0871929 -0.1155687
0003f0 2a ec 4c be d2 e0 47 be de b8 10 3d 45 40 3a be
       -0.20011964 -0.19519356 0.035332553 -0.1818858

fc2.bias f4 [24]
000000 a2 37 cf 3d f5 2f bf 3d a1 8a a8 3d da c5 25 3e
       0.10118033 0.09335319 0.08229566 0.16188756
000010 0a 50 c0 3c c1 16 26 bd 78 af 00 bd 2f ec 89 bd
       0.023475666 -0.040549044 -0.03141734 -0.067345016
000020 9f d4 16 be 1f b9 19 3e b2 c6 0b 3e bf be 5d be
       -0.14729546 0.15012024 0.13650015 -0.21654795
000030 fb a3 e7 bd 01 75 26 be 1c 02 50 3e 09 26 a6 bd
       -0.11310574 -0.16255571 0.20313305 -0.081127234
000040 48 13 4b 3d 0a ef 50 be 96 54 fa bd 9d 2c 83 3d
       0.049578935 -0.20403686 -0.12223165 0.06404994
000050 a2 04 a1 be 80 47 7f 3d 75 f9 8c be 03 44 ff 3d
       -0.31448847 0.062324047 -0.2753407 0.12464144

fc3.weight f4 [2, 24]
000000 12 5f 0e be b0 9e 62 bd 50 bb b2 3d aa ec 03 3e
       -0.13903454 -0.055327117 0.08727133 0.12883249
000010 c6 e3 77 bd cf 16 d7 bd e3 d8 99 3a 19 51 af 3d
       -0.060519956 -0.10502397 0.0011737611 0.0856039
000020 6b 5b 0a bd 68 ab 0b bc 8a ca 98 bd 34 7b a2 bd
       -0.03377859 -0.008524753 -0.07460506 -0.079336554
000030 c2 bd bc bd 69 74 f8 bc 4f 65 15 3e 5d a7 1f be
       -0.09215881 -0.030328946 0.14589427 -0.15591188
000040 ef d7 a5 bd 38 f7 2c 3e e4 75 5f 3c ac 52 b4 bd
       -0.08097827 0.16891181 0.013638947 -0.08804831
000050 88 89 1c be c9 04 c6 3d b8 8b ab bd c4 af 41 3e
       -0.15286839 0.096688814 -0.083762586 0.18914706
000060 84 f9 3d 3e 1e 31 d7 3d 67 d8 4c be 8b ce 24 3e
       0.18552214 0.10507415 -0.20004426 0.16094415
000070 0b 5e 25 be 54 02 2b 3e 0e 91 13 bd bf db ab bc
       -0.16149156 0.16700107 -0.036027007 -0.020978807
000080 b3 de 36 be 82 66 50 3e 3d 7f 15 bb 6a 2f 22 bd
       -0.1785839 0.20351604 -0.0022811436 -0.039596
000090 a9 d0 44 be 3a 42 b1 3d 11 a3 47 3e cc 4a ce bb
       -0.19220223 0.0865521 0.19495799 -0.0062955376
0000a0 2c 20 37 bc e5 88 f9 bd 28 bc b0 bd bc 49 04 3e
       -0.011177104 -0.12184314 -0.08629638 0.12918752
0000b0 2f 2c d0 3d 5b f1 b5 3c 9d 95 03 3d e0 0e 09 3e
       0.10164677 0.022209814 0.032125104 0.1338458

fc3.bias f4 [2]
000000 9c 30 4f 3e 29 93 a5 bd
       0.20233387 -0.08084709
